2-Stellar-Classification/results/stellar_classification_model.pth (torch, 222792 bytes, 20 tensors)

model.0.weight f4 [256, 6]
0.008162843 0.008733662 0.021044327 0.029256722 0.01359917 0.053481624 2.607627e-05 -0.001117328
0.015558914 0.012524336 0.005647107 0.05116515 -0.011990103 0.018555662 -0.054876436 -0.025253993
0.04692818 0.25297973 -0.018550325 -0.0160808 0.0041194605 0.00017018359 -0.013756993 0.062086627
0.13147633 0.08612943 0.018321631 0.052937727 -0.013945017 -0.2907287 0.3225095 0.3340264
0.28381968 0.06531678 -0.10911051 -0.008022202 -1.2947545e-05 -2.2022048e-05 0.0015363587 -4.2224554e-05
-2.6415124e-05 0.0001935241 0.03889574 0.08071724 0.03435322 -0.07418025 0.06859166 0.35533044
0.025958268 -0.007332136 -0.055979937 -0.038038943 0.0029444597 -0.028469617 0.0016801001 0.0010682122
-0.0012609706 -0.0138877155 0.00033470712 -0.026837727 0.0025330945 -0.0073367152 -0.054300826 -0.03584779
-0.0032178205 0.18517181 -0.0006632249 -0.0006078844 0.019001981 0.015207857 -0.0027237178 0.03627221
-0.06374902 0.03654899 0.20171133 -0.0064768423 -0.08621179 -0.34959602 3.874602e-10 -7.528064e-12
-0.00037705648 -0.00029753326 -2.1185977e-10 0.0020771304 0.047573593 0.020129481 -0.12521596 0.1120973
0.0104606785 0.07036325 0.007742176 -0.0036931948 -0.012343444 -0.017988633 -0.009258527 0.023327323
0.1230227 -0.023491465 0.059116766 -0.048505418 -0.011833651 -0.42201552 0.047760915 0.12648448
0.09376835 -0.12857753 0.102695815 0.33529317 0.4662518 0.3406529 0.14526826 -0.25616646
0.022736672 0.0306575 -0.001121993 -0.0003541131 -0.012628658 -0.019122899 -0.0006659204 -0.005587282
-0.08361631 0.11134892 0.28358096 -0.16989496 -0.039708164 -0.27408886 0.005592194 0.0056224125
-0.00018721652 -0.00017114183 0.005666388 -5.6362485e-05 0.0007594784 0.0008793937 0.0024397825 0.0011538556
0.0024374258 -0.0040840087 -0.0023150458 -0.004139244 0.027480526 0.030328687 0.003411985 -0.0072055077
0.19287848 0.19295922 0.06605461 0.17852981 -0.15710251 0.012422013 -0.0084811095 -0.009795025
-0.040249195 -0.039418127 -0.012159106 0.0059518875 -0.022080261 -0.003722431 -0.21491133 0.15825766
0.10211272 0.15703513 -0.01775146 -0.006554825 -0.019519731 -0.04472848 -0.00095391634 -0.009344773
0.4337275 0.064322755 0.053647257 -0.04721299 0.039414298 -0.41208863 0.0027318192 0.0024003333
0.039244883 0.0061829994 0.0054976526 -0.03122211 0.013548449 -0.15696296 0.08384695 -0.0801939
0.15145399 -0.7004985 0.041654203 -0.11352868 0.008595926 -0.0020422754 -0.021705223 -0.7250832
-0.039890435 -0.015386554 -0.028197853 -0.01614904 0.010956144 -0.087066084 0.82621765 0.5556129
-0.28800368 0.17624772 0.62895876 -0.052823566 0.0041417945 0.0016105848 -0.022003694 -0.02245549
-0.0004752593 -0.07258292 0.4517342 0.4338294 0.22734879 -0.31309944 0.006209219 0.042494416
-0.006538064 -0.0078398045 0.0021621394 0.0013868567 -0.0069991057 -0.046970658 0.22030103 0.27644357
0.27437335 -0.3346298 -0.08351087 -0.11463443 0.00029508193 -3.2026954e-05 -0.005990799 -0.0024404596
-0.0001173417 0.022625556 0.033651862 0.14509094 0.0956178 -0.119581796 0.08984009 0.37833443
0.040044557 0.054089613 -0.07740387 -0.02214889 0.039252024 0.33421716 0.041132618 0.10703412
0.18456282 0.1284112 -0.08492082 -0.15950105 -0.023645587 -0.019929579 -0.020200685 -0.019327272
00000000: 72bd 053c a217 0f3c 2765 ac3c cbab ef3c
00000010: 0ecf 5e3c 8c0f 5b3d 5dbe da37 4e73 92ba
00000020: d1ea 7e3c df32 4d3c 5e0b b93b 8c92 513d
00000030: 2372 44bc 0b02 983c 1dc6 60bd 76e1 cebc
00000040: c337 403d 8f86 813e daf6 97bc e2bb 83bc
00000050: 8afc 863b 4f73 3239 0365 61bc 8c4e 7e3d
00000060: bba1 063e a064 b03d 3f17 963c 3bd5 583d
00000070: a479 64bc 64da 94be f71f a53e 8205 ab3e
00000080: d050 913e cec4 853d 5575 dfbd 8e6f 03bc
00000090: 4839 59b7 fdbb b8b7 a55f c93a 451a 31b8
000000a0: 0c96 ddb7 bbec 4a39 2451 1f3d 154f a53d
000000b0: f6b5 0c3d d1eb 97bd c979 8c3d dfed b53e
000000c0: 6fa6 d43c 6a42 f0bb 384b 65bd b9ce 1bbd
000000d0: d6f7 403b 1d39 e9bc ce36 dc3a 4103 8c3a
000000e0: 2747 a5ba 4d89 63bc a17b af39 cbda dbbc
000000f0: 4602 263b d468 f0bb 8b6a 5ebd 22d5 12bd
00000100: 12e2 52bb ae9d 3d3e 45dc 2dba 6e5a 1fba
00000110: 0baa 9b3c 602a 793c 6780 32bb 2b92 143d
00000120: d98e 82bd 65b4 153d 6a8d 4e3e b13b d4bb
00000130: cf8f b0bd 40fe b2be 2d02 d52f 636f 04ad
00000140: aaaf c5b9 3dfe 9bb9 39f1 68af 7720 083b
00000150: 87dc 423d 95e6 a43c 9d38 00be 4593 e53d
00000160: 4463 2b3c 9c1a 903d 14b2 fd3b 8709 72bb
00000170: 283c 4abc e65c 93bc 14b1 17bc f118 bf3c
00000180: 53f3 fb3d 2c71 c0bc 6c24 723d 9ead 46bd
00000190: eee1 41bc 6b12 d8be f3a0 433d 2685 013e
000001a0: 9f09 c03d d4a9 03be 2f52 d23d 8cab ab3e
000001b0: 8eb8 ee3e 0f6a ae3e 34c1 143e 4028 83be
000001c0: 4242 ba3c 7025 fb3c d60f 93ba 41a8 b9b9
000001d0: 6ee8 4ebc a0a7 9cbc 2991 2eba 8515 b7bb
000001e0: 073f abbd e70a e43d 8631 913e f2f8 2dbe
000001f0: 07a5 22bd 6055 8cbe b93e b73b 373c b83b
00000200: 8d4f 44b9 8974 33b9 1cad b93b c266 6cb8
00000210: bc17 473a 1d87 663a c2e4 1f3b f83c 973a
00000220: 38bd 1f3b 26d3 85bb 06b8 17bb 7fa2 87bb
00000230: d71e e13c de73 f83c 9c9b 5f3b 2e1c ecbb
00000240: f081 453e 1a97 453e a447 873d 85d0 363e
00000250: 7bdf 20be b385 4b3c 5af4 0abc 507b 20bc
00000260: 57dc 24bd e774 21bd fd36 47bc 0d08 c33b
00000270: aae1 b4bc 07f4 73bb b711 5cbe 4c0e 223e
00000280: 7920 d13d d1cd 203e 836b 91bc dcc9 d6bb
00000290: d8e7 9fbc 3635 37bd 3e10 7aba d21a 19bc
000002a0: 8811 de3e a6bb 833d 3abd 5b3d 6862 41bd
000002b0: e370 213d 48fd d2be 5208 333b e94e 1d3b
000002c0: 3ebf 203d c29a ca3b a725 b43b 83c5 ffbc
000002d0: 50fa 5d3c e6ba 20be f3b7 ab3d b33c a4bd
000002e0: c116 1b3e df53 33bf 999d 2a3d b981 e8bd
000002f0: edd5 0c3c b2d7 05bb 27cf b1bc 0d9f 39bf
00000300: 2764 23bd e317 7cbc 2fff e6bc fe4a 84bc
00000310: 6681 333c b44f b2bd 0083 533f a63c 0e3f
00000320: 3875 93be 487a 343e 7103 213f 865d 58bd
00000330: e4b7 873b 421a d33a 1741 b4bc 93f4 b7bc
00000340: 392c f9b9 5ba6 94bd b449 e73e e31e de3e
00000350: 1fce 683e 924e a0be b476 cb3b a00e 2e3d
00000360: 423d d6bb 8672 00bc aeb2 0d3b 30c7 b53a
00000370: c158 e5bb 4e64 40bd 9896 613e 038a 8d3e
00000380: aa7a 8c3e 9954 abbe bf07 abbd 75c5 eabd
00000390: 3ab5 9a39 ae54 06b8 774e c4bb 1ef0 1fbb
000003a0: 5815 f6b8 3b59 b93c 89d6 093d b892 143e
000003b0: 44d3 c33d 4de7 f4bd 15fe b73d 0db5 c13e
000003c0: c305 243d 128d 5d3d ec85 9ebd 9771 b5bc
000003d0: bbc6 203d 831e ab3e ad7a 283d b434 db3d
000003e0: 09fe 3c3e 3a7e 033e f8ea adbd 3e54 23be
000003f0: 64b4 c1bc 5b43 a3bc e87b a5bc 3a54 9ebc

model.0.bias f4 [256]
-0.033228528 -0.029173672 -0.039335705 -0.06824214 0.2119499 -0.34689406 -0.007677272 -0.08879448
-0.023914536 0.026758749 -0.36036524 -0.0107928915 0.16016394 -0.024240607 -0.31826606 -0.05029307
-0.22382523 -0.08014647 0.06454324 -0.0028451786 0.21778467 -0.001512507 -0.01789011 0.001224366
-0.2366406 0.007996244 -0.037493195 0.028443433 -0.091976106 0.043405566 -0.504501 -0.5541241
0.015786637 -0.029190937 0.03404295 0.109108016 -0.006165582 0.01748847 -0.009526281 -0.12472542
-0.035670694 -0.21363454 -0.022156958 -0.02895743 -0.028417243 0.02139562 0.05076896 0.045072414
-0.0057445862 -0.10118572 -0.021059895 -0.043355953 -0.010589664 -0.065250516 0.003891695 -0.3458939
-0.050032243 -0.030878244 0.20311505 -0.011143701 -3.226526e-30 -0.123815864 -0.21856207 -0.0017666407
-0.07902039 0.009219838 0.008513851 -0.0060431603 -0.014025936 -0.033564385 0.19764599 -0.040800236
-0.0080550285 -0.16866392 0.030168261 -0.014902432 -0.23159333 -0.14441697 0.035208523 -0.002219899
-0.091129206 -0.0651475 0.0033810167 -0.092510924 -0.03462906 0.0766163 -0.006470049 -0.00033882886
0.048600726 0.058897346 0.0124495765 -0.2150006 -0.06082266 -0.017154913 -0.0051854025 -0.029436147
-0.09229729 -0.05449493 -0.2019621 -0.059789397 -0.11095346 0.07122525 -0.06822142 -0.0026275837
-0.041302677 0.004023344 -0.0035929058 -0.5693565 0.0018907066 -0.020879645 -0.08739391 -0.3441285
-0.016117362 0.013994964 0.07087092 -0.04424579 0.111714356 0.044132657 0.020275746 0.0068037203
0.0050634798 -0.0041977726 -0.2144453 -0.013619663 -0.023921005 0.19620813 -0.06820047 -0.0026639013
0.012885506 0.015414935 0.043417677 -0.02096793 0.095948294 0.013437556 0.034814324 -0.20003739
-0.24067442 0.02686777 0.015360745 0.18147932 -6.748071e-17 -0.0044297855 -9.865383e-09 -4.270898e-05
0.0035809446 -5.094087e-07 -0.0630075 -0.025319604 -0.015719438 0.026436562 -0.45082787 -0.04864073
-0.036893472 -0.03126195 -0.028251076 -0.00024191957 -0.11282117 0.0905424 -0.080876 0.0035828878
0.008623551 -0.011183448 0.029226279 -0.0015500281 -0.047381397 0.025530431 0.119572364 -0.00091038353
0.031324826 -0.010263314 0.22016579 -0.42416042 0.043280244 -0.033183057 -0.069460094 -0.08766366
0.052147664 -0.38064605 -0.021603009 -0.2461483 -0.014171335 0.004705213 -0.023238529 -0.00924161
-0.05654103 0.21584117 -0.24147154 0.001475444 -0.4246818 -0.67256266 -0.110804185 0.13051046
-0.033517435 -0.0059842095 -0.13056447 -0.036082108 -0.016212638 -0.14956406 -0.12262845 0.043992028
0.019484088 -0.0043516387 -0.13270171 -0.0010849067 -0.005077315 0.041121934 0.0063144304 0.0013153917
0.011821129 0.00876336 0.04212874 0.10488219 -0.15398821 -0.108787745 -0.025022866 -0.16173525
-0.008232361 -0.006678965 0.015996337 -0.013876992 0.13081919 0.00068796944 -0.08577491 -0.003938762
0.0039301133 -0.0013839215 -0.0071683996 -0.021823533 0.037795145 0.22135766 -0.3364828 -0.027076561
0.07337083 -0.024616417 -0.019857299 0.0036228553 -0.31310627 0.005894778 -0.019954456 0.0019879309
-0.037027825 -0.012707647 -0.034307327 -0.13512619 -0.08276814 -0.04348968 -0.01931874 -0.01459425
0.16714075 0.22968012 -0.022541944 0.05097098 -0.046150066 -0.014022115 -0.03493924 -0.094678976
00000000: a31a 08bd a0fd eebc 7a1e 21bd 89c2 8bbd
00000010: 6509 593e 199c b1be a091 fbbb e1d9 b5bd
00000020: 6be8 c3bc 2a35 db3c cb81 b8be abd4 30bc
00000030: 0402 243e 3d94 c6bc c5f3 a2be 1b00 4ebd
00000040: 7132 65be d523 a4bd 3f2f 843d 2d76 3abb
00000050: f202 5f3e 503f c6ba 488e 92bc e87a a03a
00000060: ea51 72be ae02 033c 7792 19bd 3402 e93c
00000070: f85d bcbd 09ca 313d fa26 01bf 14db 0dbf
00000080: fa52 813c d521 efbc 9f70 0b3d 0674 df3d
00000090: a708 cabb fb43 8f3c 1e14 1cbc 0a70 ffbd
000000a0: 6f1b 12bd 03c3 5abe 8282 b5bc 2238 edbc
000000b0: 47cb e8bc de45 af3c 1df3 4f3d da9d 383d
000000c0: 153d bcbb 753a cfbd cd85 acbc 0396 31bd
000000d0: 4580 2dbc 10a2 85bd cf0b 7f3b 0119 b1be
000000e0: 9cee 4cbd 5ff4 fcbc 64fd 4f3e 1294 36bc
000000f0: 29e2 828e 2c93 fdbd bcce 5fbe a08e e7ba
00000100: 71d5 a1bd ce0e 173c ae7d 0b3c b405 c6bb
00000110: 0acd 65bc cf7a 09bd b663 4a3e 261e 27bd
00000120: 3df9 03bc 3cb6 2cbe 6e23 f73c 5529 74bc
00000130: cd26 6dbe 0be2 13be d036 103d ba7b 11bb
00000140: f3a1 babd 0d6c 85bd 0c94 5d3b 5e76 bdbd
00000150: 34d7 0dbd 02e9 9c3d b402 d4bb d7a4 b1b9
00000160: 8e11 473d 583e 713d 4ff9 4b3c 1e29 5cbe
00000170: 2e21 79bd 7688 8cbc 4fea a9bb 1324 f1bc
00000180: 5d06 bdbd 1336 5fbd 27cf 4ebe bae5 74bd
00000190: 913b e3bd 8bde 913d acb7 8bbd 8a33 2cbb
000001a0: ff2c 29bd 41d6 833b f576 6bbb 59c1 11bf
000001b0: 96d1 f73a ca0b abbc 94fb b2bd 9c31 b0be
000001c0: 8f08 84bc 224b 653c c624 913d 133b 35bd
000001d0: 7fca e43d 72c4 343d 5219 a63c bef1 de3b
000001e0: 8ceb a53b 788d 89bb 8c97 5bbe 0225 5fbc
000001f0: fcf5 c3bc c9ea 483e b0ac 8bbd d994 2ebb
00000200: bb1d 533c ec8e 7c3c bcd6 313d f0c4 abbc
00000210: 8a80 c43d 3229 5c3c 7799 0e3d 9ad6 4cbe
00000220: 5b73 76be cc19 dc3c a2ab 7b3c b7d5 393e
00000230: 9599 9ba4 bc27 91bb 6a7c 29b2 6b22 33b8
00000240: 48ae 6a3b 4dbe 08b5 130a 81bd 0f6b cfbc
00000250: 0dc6 80bc 7d91 d83c e9d2 e6be 813b 47bd
00000260: 9c1d 17bd 880c 00bd cd6e e7bc caab 7db9
00000270: c90e e7bd 4b6e b93d 51a2 a5bd e2ce 6a3b
00000280: cb49 0d3c c83a 37bc f36b ef3c 502a cbba
00000290: ff12 42bd 3225 d13c 5be2 f43d cea6 6eba
000002a0: 764e 003d 7527 28bc 2473 613e 8e2b d9be
000002b0: a046 313d f5ea 07bd 1841 8ebd 0189 b3bd
000002c0: ca98 553d 0ae4 c2be cbf8 b0bc 4d0e 7cbe
000002d0: e32e 68bc 302e 9a3b ba5e bebc 1f6a 17bc
000002e0: 9197 67bd 7805 5d3e 5144 77be af63 c13a
000002f0: e56f d9be 112d 2cbf 4eed e2bd 89a4 053e
00000300: 9449 09bd 3017 c4bb b1b2 05be d5ca 13bd
00000310: 5ed0 84bc 5227 19be a024 fbbd fc30 343d
00000320: 189d 9f3c 3198 8ebb f5e2 07be 6e33 8eba
00000330: 9b5f a6bb 796f 283d 48e9 ce3b 3969 ac3a
00000340: 69ad 413c 3294 0f3c 308f 2c3d 79cc d63d
00000350: 16af 1dbe 1ccc debd c1fc ccbc ed9d 25be
00000360: 06e1 06bc 38db dabb c00a 833c 535c 63bc
00000370: 77f5 053e d958 343a c2aa afbd bb10 81bb
00000380: 2ec8 803b b364 b5ba e5e4 eabb 44c7 b2bc
00000390: 15cf 1a3d 95ab 623e 7947 acbe aacf ddbc
000003a0: 7243 963d 5ea8 c9bc c6ab a2bc 6d6d 6d3b
000003b0: 774f a0be fb28 c13b 8777 a3bc f247 023b
000003c0: 7daa 17bd bc33 50bc d785 0cbd 855e 0abe
000003d0: 5882 a9bd 3c22 32bd 5642 9ebc b91c 6fbc
000003e0: f226 2b3e 4431 6b3e e2a9 b8bc f2c6 503d
000003f0: da07 3dbd 03bd 65bc 731c 0fbd 0de7 c1bd

model.2.weight f4 [256]
0.008350695 -0.01186177 0.14784479 0.022087952 0.14676546 0.348511 -0.00018283761 0.33655897
-0.015972545 0.0014045303 0.22492336 -0.002405455 0.31356665 -0.0015374365 0.25218025 -0.01057517
0.26667333 0.35808343 0.18877786 -0.005160284 0.26553214 6.936407e-05 -0.006749554 -0.008676967
0.2602825 0.013677523 0.17446166 -0.0038476908 0.32463062 -0.0028098812 0.46848518 0.58572745
-0.0077333674 0.44852954 -0.0008194417 0.2560451 0.0062588844 0.21405758 -0.0013291112 0.4681432
0.34288228 0.27550274 0.017043846 -0.02509934 0.00025135177 -0.005546818 0.062331725 0.024665227
0.0021364477 0.39085516 -0.039080653 0.26867333 0.0011439713 0.19914222 -0.009702504 0.36134857
0.0074339127 0.1653138 0.23095255 0.32179275 -4.0485156e-07 0.3082522 0.08467869 -0.00857681
0.08855913 -0.0017753225 -0.003088442 -0.039924372 0.00751661 0.12376726 0.26650843 0.0067424444
0.0018207333 0.25818342 -0.02665568 0.08418296 0.45062986 0.26462498 -0.024747815 -0.010363553
0.0266488 -0.016573025 0.5606517 -0.034293294 0.29519892 0.21354677 0.0014203574 0.2532975
-0.008555116 0.086262815 0.006829089 0.23374227 0.2352508 0.53739816 -0.010685109 -0.0049844543
0.26927513 0.012545467 0.17498124 -0.00090232096 0.4127111 0.04717423 0.018648554 -0.00553563
-0.042488486 0.108363494 -0.0062352913 0.66236115 -0.008804963 0.008942617 -0.009036046 0.26752523
0.009288263 0.0061551523 0.33547512 0.008672187 0.17794758 0.019122042 0.002674973 -0.010590347
0.47205752 -0.0028895922 0.2640345 0.007618421 0.0037473745 0.12751973 0.042826623 0.10387977
0.1839291 -0.006772871 0.013579691 0.0077539277 0.1013458 0.2447337 0.3831623 0.45151746
0.35169488 -0.003586003 0.010586958 0.20611869 0.00014535489 0.0075694737 -0.0014452132 0.0044140145
-0.0028981841 -0.0007663631 0.019516053 -0.0022554658 0.27149063 0.0038736998 0.046796564 -0.0018036531
-0.023051457 -0.0050037694 -0.0081499675 0.006948314 0.45060807 0.0832977 -0.0450995 -0.0014153303
0.003644986 0.0039341883 -0.030654717 0.0024386896 -0.014329164 0.4950725 -0.009622506 -0.004931507
0.014620504 -0.002294613 0.18090907 0.27306694 0.18304104 0.24677707 0.32211006 0.015083193
0.012981888 0.17835918 0.0021379096 0.3416261 -0.008937974 -0.0037394986 0.008685685 -0.0014796788
-0.043248408 0.25079983 0.21207586 -0.0016692629 0.3516786 0.7615174 0.034528196 0.23384859
0.021695333 0.002120766 0.09144864 0.006633073 -0.0060903993 0.11522217 0.15682861 0.011005761
0.023576576 0.013275864 0.1561331 -0.007797177 0.004461133 0.19607945 -0.010779945 0.0020648914
0.004283185 0.0028232713 0.3690802 0.030527275 0.43539143 -0.04531165 0.002427291 0.1889112
0.23995575 -0.002356264 0.0067019267 0.48958603 0.3299918 -0.013627216 -0.002636011 -5.664033e-05
-0.00041368173 -0.021359205 -0.0006790649 0.0016308537 0.009854529 0.16068655 0.18105377 0.004208393
0.004317049 -0.005662347 0.0005098531 -0.009434024 0.4104818 -0.0008281505 0.51729345 -0.00057448895
0.17125995 6.571187e-05 -0.006763198 0.24809097 0.34031624 0.008255896 0.0024762645 0.0013177907
0.12594031 0.27392405 0.022841422 -0.012560176 0.0019226504 -0.008532672 0.48428106 -0.1707641
00000000: 5ad1 083c df57 42bc a064 173e cbf1 b43c
00000010: af49 163e 0970 b23e 19b8 3fb9 7551 ac3e
00000020: dbd8 82bc 3718 b83a 4f52 663e d7a4 1dbb
00000030: cf8b a03e cf83 c9ba c51d 813e 7a43 2dbc
00000040: 6889 883e b656 b73e fc4e 413e 9a17 a9bb
00000050: d4f3 873e 8d77 9138 5d2b ddbb d629 0ebc
00000060: bf43 853e b017 603c 14a6 323e 8a29 7cbb
00000070: fc35 a63e fc25 38bb 4add ef3e 3cf2 153f
00000080: 3068 fdbb aaa5 e53e cdcf 56ba 5818 833e
00000090: 5417 cd3b e931 5b3e 9235 aeba 77b0 ef3e
000000a0: 448e af3e b20e 8d3e 899f 8b3c 229d cdbc
000000b0: ddc7 8339 15c2 b5bb 8d4f 7f3d bb0e ca3c
000000c0: a503 0c3b 2b1e c83e 0913 20bd 8d8f 893e
000000d0: 4ff1 953a f0eb 4b3e 40f7 1ebc ae02 b93e
000000e0: 2e98 f33b 0548 293e d37e 6c3e 05c2 a43e
000000f0: 605a d9b4 3bd3 9d3e 056c ad3d c085 0cbc
00000100: 7d5e b53d f0b1 e8ba 7567 4abb bd87 23bd
00000110: e54d f63b b079 fd3d cb73 883e b9ef dc3b
00000120: aca5 ee3a 9e30 843e 035d dabc 1e68 ac3d
00000130: f5b8 e63e ed7c 873e eebb cabc e4cb 29bc
00000140: 964e da3c 27c4 87bc df86 0f3f 2077 0cbd
00000150: 5024 973e 01ac 5a3e 492b ba3a 36b0 813e
00000160: c22a 0cbc 8faa b03d 8dc6 df3b 225a 6f3e
00000170: 96e5 703e ed92 093f 9810 2fbc a254 a3bb
00000180: 6ede 893e 818b 4d3c 482e 333e bc89 6cba
00000190: df4e d33e c439 413d dac4 983c 3b64 b5bb
000001a0: 6808 2ebd aeed dd3d 6a51 ccbb 8090 293f
000001b0: b142 10bc 0e84 123c ed0b 14bc 11f9 883e
000001c0: cc2d 183c 29b1 c93b 65c3 ab3e ca15 0e3c
000001d0: e437 363e d4a5 9c3c 9a4e 2f3b 2383 2dbc
000001e0: 86b1 f13e 505f 3dbb 882f 873e f3a3 f93b
000001f0: 8396 753b 8894 023e f86a 2f3d ebbe d43d
00000200: e957 3c3e f6ee ddbb 5a7d 5e3c a914 fe3b
00000210: 638e cf3d 799b 7a3e d92d c43e 4c2d e73e
00000220: 5a11 b43e 2603 6bbb ec74 2d3c c710 533e
00000230: 686a 1839 5909 f83b 4f6d bdba 70a3 903b
00000240: 76ef 3dbb c2e5 48ba 21e0 9f3c 70d0 13bb
00000250: d200 8b3e e6dd 7d3b c1ad 3f3d 8e68 ecba
00000260: 69d6 bcbc a9f6 a3bb 7187 05bc afae e33b
00000270: 1ab6 e63e fc97 aa3d 41ba 38bd 9b82 b9ba
00000280: b8e0 6e3b 5dea 803b 9a1f fbbc 6cd2 1f3b
00000290: dfc4 6abc 257a fd3e b7a7 1dbc 7b98 a1bb
000002a0: d78a 6f3c 3861 16bb 3a40 393e 6ecf 8b3e
000002b0: 1c6f 3b3e 21b3 7c3e 9ceb a43e 7f1f 773c
000002c0: fcb1 543c caa3 363e 2c1c 0c3b 9ee9 ae3e
000002d0: 9570 12bc 6012 75bb 674e 0e3c c8f1 c1ba
000002e0: 3e25 31bd d668 803e 6a2a 593e 2bcb daba
000002f0: 380f b43e cef2 423f 706d 0d3d 0176 6f3e
00000300: 69ba b13c 8dfc 0a3b 6d49 bb3d 405a d93b
00000310: f991 c7bb 9af9 eb3d ae97 203e 8251 343c
00000320: aa23 c13c 0283 593c 5be1 1f3e 767f ffbb
00000330: b22e 923b 0dc9 483e 5e9e 30bc 2153 073b
00000340: f659 8c3b a206 393b 14f8 bc3e 5614 fa3c
00000350: a0eb de3e b598 39bd 2f13 1f3b f071 413e
00000360: f6b6 753e 8d6b 1abb d69b db3b 05ab fa3e
00000370: aff4 a83e b044 5fbc edc0 2cbb 1791 6db8
00000380: 6ce3 d8b9 80f9 aebc 4603 32ba 5fc2 d53a
00000390: e474 213c 048b 243e 2966 393e 8fe6 893b
000003a0: 0876 8d3b 368b b9bb aaa7 053a 2a91 1abc
000003b0: ac2a d23e 3d18 59ba 586d 043f 4d99 16ba
000003c0: c55e 2f3e cbce 8938 d19d ddbb 8f0b 7e3e
000003d0: ee3d ae3e bd43 073c d348 223b b8b9 ac3a
000003e0: 7ff6 003e c63f 8c3e ef1d bb3c 32c9 4dbc
000003f0: 7101 fc3a 9fcc 0bbc b0f3 f73e c9dc 2ebe

model.2.bias f4 [256]
0.015786095 0.0029379441 0.06466194 0.01960576 -0.04844913 -0.0051321457 0.008540497 0.11984763
-0.010889715 0.0010277224 0.043220013 0.003942712 0.14150402 -0.0011021324 -0.03112508 -0.0069906446
-0.03705102 0.09270393 0.104100004 0.01018623 0.13206229 -0.0029359895 -0.00054097665 -0.018427413
-0.005531514 0.01959852 0.11975262 -0.017679991 0.04190352 6.1414816e-05 -0.29765895 -0.46669525
0.010856689 0.18431973 0.008591883 0.101486936 0.0036496506 0.07211199 -0.0044757677 0.14706734
0.10195356 -0.013943628 -0.003447828 -0.004594562 -0.008072271 -0.0031386644 0.012543258 -0.004537325
-0.003782231 0.124078736 -0.012391841 0.03495579 0.0015008452 0.052792672 -0.0010231588 -0.18429695
0.00025184848 0.035293102 0.15045568 0.013405517 -0.087975 0.06013426 0.049858615 0.009839296
0.008075063 -0.0034892831 0.0004302498 -0.026416639 0.007190613 0.07485353 0.14434132 0.001690581
0.0042895693 0.05041968 -0.0032288413 0.04710917 0.15012442 0.072248675 -0.04334666 -0.008484242
-0.00993326 0.036746226 0.17774986 -0.107015885 0.04678803 0.045131758 -0.0141128795 0.04376558
0.0016375808 0.013259797 -0.024320917 0.038125105 0.032913167 0.18623725 -0.0022295415 0.00953348
0.050595645 0.026125412 0.042767916 0.0026200223 0.068174265 -0.005752012 0.025662214 -0.0008933229
0.03230782 0.06001204 0.05899782 -0.5515954 0.0082151005 -0.031608075 0.005271116 0.054203328
0.0060387366 -0.004996116 -0.06611348 0.0054033087 -0.034606226 0.012087632 -0.0017509361 0.007026778
0.13529854 -0.02395723 -0.0069443537 -0.005540858 0.0009429893 -0.026975268 -0.009401878 0.028382722
-0.030548291 0.016429631 0.008862847 0.008376113 0.011647903 0.11595086 0.064352006 0.11334697
0.014036224 0.02024052 0.010423522 0.055800892 0.0013429658 -0.0068494678 0.004227817 0.002555635
0.0002454337 0.00087003 -0.03231644 0.00072062155 0.019700449 0.008730149 -0.041534334 -0.0050355596
-0.0077465093 -0.016295707 -0.016629877 0.006607189 0.08134657 0.016123263 0.02303056 -0.00094315823
0.0023535683 -0.0023951528 -0.00436629 -0.01367734 -0.002016838 0.2077471 0.016314937 -0.0031786482
-0.004775174 0.0062131966 0.030018864 0.0047221817 0.07032755 0.045069315 0.1129697 -0.023531757
0.018732753 9.100361e-05 -0.003186744 0.010638921 0.0063034105 0.00516369 0.0042791716 -0.010988502
0.0010692095 0.07494001 0.07198427 0.00059038657 0.0024143483 -0.7037153 -0.0065530445 0.08882299
0.0010306868 -0.0035523684 0.06768351 -0.005974943 -0.0001280054 0.0706362 0.07305996 -0.014704699
-0.020736415 -0.031842567 0.008533379 0.01395245 -0.00017487843 0.09368466 0.00223369 -0.0038425745
0.00055345375 -0.016699018 -0.17869271 -0.0041258135 0.10572256 -0.034023937 -0.0083287405 0.07877706
0.11458986 -0.0037358657 -0.0053971135 0.23292364 0.14872485 -0.027994763 0.0115493955 -0.0034012771
0.006680685 0.03788389 0.005196846 0.026016666 -0.032811422 0.08660631 0.00780494 0.0030510651
-0.012080856 -0.018854491 0.006720595 0.0032156438 -0.0020652378 0.0025721202 0.206658 0.005352152
0.03993307 0.0056098825 0.0030036683 0.043731127 0.043645546 -0.032789793 0.007010247 -0.02465915
-0.035266917 0.043995097 0.01472352 0.021947382 -0.004939758 -0.024953313 0.15890215 -0.024997042
00000000: d751 813c 868a 403b 7b6d 843d 429c a03c
00000010: 9872 46bd 8f2b a8bb 71ed 0b3c ad72 f53d
00000020: c66a 32bc a4b4 863a 7807 313d de31 813b
00000030: 6ee6 103e 6d75 90ba 06fa febc c711 e5bb
00000040: cfc2 17bd 8fdb bd3d 6232 d53d 25e4 263c
00000050: 563b 073e bb69 40bb 54d0 0dba 16f5 96bc
00000060: b441 b5bb 138d a03c dd40 f53d a1d5 90bc
00000070: 06a3 2b3d d4cb 8038 c166 98be aef2 eebe
00000080: 41e0 313c 50be 3c3e f8c4 0c3c 62d8 cf3d
00000090: fa2e 6f3b 73af 933d 76a9 92bb d298 163e
000000a0: 07cd d03d d173 64bc f5f4 61bb fb8d 96bb
000000b0: 8f41 04bc 0db2 4dbb 3d82 4d3c d7ad 94bb
000000c0: 4edf 77bb fe1c fe3d 2607 4bbc cd2d 0f3d
000000d0: 02b8 c43a 213d 583d 831b 86ba 57b8 3cbe
000000e0: 880a 8439 808f 103d 0e11 1a3e d0a2 5b3c
000000f0: 3d2c b4bd 584f 763d 8c38 4c3d 0035 213c
00000100: 454d 043c 75ac 64bb 2793 e139 b567 d8bc
00000110: 3c9f eb3b cf4c 993d 36ce 133e 7c96 dd3a
00000120: 848f 8c3b de84 4e3d f89a 53bb 8cf5 403d
00000130: 37ba 193e 1df7 933d 448c 31bd 7d01 0bbc
00000140: 1dbf 22bc 3683 163d 0f04 363e 252b dbbd
00000150: cea4 3f3d 14dc 383d b539 67bc 8943 333d
00000160: 18a4 d63a 9f3f 593c a93c c7bc 1229 1c3d
00000170: f5cf 063d fab4 3e3e 801d 12bb 5032 1c3c
00000180: 613d 4f3d f604 d63c 692d 2f3d aeb4 2b3b
00000190: f39e 8b3d 607b bcbb 9039 d23c e32d 6aba
000001a0: 3455 043d 2fcf 753d b3a7 713d 5b35 0dbf
000001b0: a198 063c 7877 01bd 53b9 ac3b 4f04 5e3d
000001c0: 98e0 c53b 75b6 a3bb 8166 87bd 3d0e b13b
000001d0: 42bf 0dbd 340b 463c ab7f e5ba e340 e63b
000001e0: b38b 0a3e f441 c4bc 768d e3bb 1690 b5bb
000001f0: f132 773a 3dfb dcbc 560a 1abc e282 e83c
00000200: 6940 fabc 6f97 863c 7a35 113c f73b 093c
00000210: d9d6 3e3c a577 ed3d fcca 833d 7522 e83d
00000220: 31f8 653c 72cf a53c 6cc7 2a3c 7a8f 643d
00000230: 7406 b03a 8071 e0bb 8089 8a3b 717c 273b
00000240: 8ead 8039 ba12 643a 3e5e 04bd 18e8 3c3a
00000250: d662 a13c e608 0f3c e81f 2abd 5601 a5bb
00000260: 6ed6 fdbb 937e 85bc 613b 88bc 1e81 d83b
00000270: 0899 a63d ef14 843c 96aa bc3c 473e 77ba
00000280: 533e 1a3b fff7 1cbb 1813 8fbb ec16 60bc
00000290: ed2c 04bb a8bb 543e e7a6 853c de50 50bb
000002a0: 1079 9cbb 1298 cb3b 1fea f53c 88bc 9a3b
000002b0: e407 903d 9a9a 383d a85c e73d acc5 c0bc
000002c0: 6e75 993c 31d9 be38 b1d8 50bb de4e 2e3c
000002d0: d78c ce3b 2c34 a93b 4b38 8c3b 1e09 34bc
000002e0: b824 8c3a 267a 993d 7d6c 933d 2cc4 1a3a
000002f0: 0b3a 1e3b b026 34bf ecba d6bb d4e8 b53d
00000300: 1c18 873a dace 68bb a79d 8a3d 74c9 c3bb
00000310: 3039 06b9 b6a9 903d 76a0 953d faeb 70bc
00000320: 6adf a9bc 5a6d 02bd 96cf 0b3c d198 643c
00000330: 925f 37b9 bedd bf3d 1963 123b b4d3 7bbb
00000340: a715 113a 61cc 88bc 39fb 36be d531 87bb
00000350: 1285 d83d af5c 0bbd 4575 08bc de55 a13d
00000360: 17ae ea3d 6dd5 74bb 45da b0bb 8983 6e3e
00000370: 544b 183e 4655 e5bc ad39 3d3c f6e7 5ebb
00000380: a6e9 da3b 232c 1b3d 4e4a aa3b e720 d53c
00000390: 4565 06bd a65e b13d 95c0 ff3b 61f4 473b
000003a0: c8ee 45bc bc74 9abc 7038 dc3b 8dbd 523b
000003b0: f158 07bb 0491 283b 289e 533e 1b61 af3b
000003c0: dc90 233d 1bd3 b73b 31d9 443b 691f 333d
000003d0: acc5 323d 974e 06bd 37b6 e53b fc01 cabc
000003e0: 0b74 10bd 3434 343d eb3a 713c ffca b33c
000003f0: b2dd a1bb e46a ccbc 3fb7 223e 99c6 ccbc

model.2.running_mean f4 [256]
0.019483821 0.014116291 0.053864874 0.006561329 0.26402766 0.018316943 2.6837413e-10 0.07520389
0.035886582 0.03373271 0.0066694557 0.016659094 0.22948022 6e-45 0.000395235 0.00057270826
0.027993409 0.07174953 0.08281719 0.012827897 0.2702814 1.4747947e-08 5.5966757e-07 0.022329638
0.014686339 0.0363596 0.0381535 0.042972267 0.080598384 0.048473682 0.011528536 0.0049778908
0.05370214 0.017833732 0.060537063 0.11753802 0.0074456586 0.08197817 0.0038214787 0.076405846
0.07490007 0.027269626 0.010937638 0.031969495 0.0080099385 0.021994138 0.06280861 0.06338731
0.009689968 0.07336587 0.030765664 0.024600524 0.008681347 0.064164065 0.01640285 0.007711882
0.011694414 0.051274598 0.2616194 0.03463085 6e-45 0.07072866 0.0067261183 0.020792266
0.0550026 0.012920192 0.019810501 0.04683559 0.003319109 0.05512068 0.26967633 3.1442434e-07
0.012528546 0.049524564 0.04913661 0.07050277 0.039174736 0.048356134 0.065129116 0.018545162
8.4278545e-06 6e-45 0.023561317 2.2486105e-21 0.07811317 0.10611459 0.030642051 0.09221286
0.0615379 0.085529216 0.047222707 0.0060124076 0.043174975 0.041612525 0.024146955 0.0007623571
0.041366693 0.002994239 0.028925586 4.24097e-05 0.07862481 0.09521154 0.01867019 0.01559903
0.029033534 0.05463746 3.5377943e-22 0.006313141 0.018629272 0.010303138 0.00029009223 0.004124215
0.0075345747 0.02345812 0.0658958 0.01706384 0.1592536 0.04183347 0.039098985 0.031420913
0.026395084 0.017460015 0.03536225 0.016023934 0.010428711 0.22989008 0.008413571 0.021515366
0.034183264 0.027982777 0.051697034 4.068811e-23 0.12307295 0.079343624 0.041832652 0.027877802
0.056153774 0.0675124 0.036357705 0.24375404 6e-45 6e-45 6e-45 6e-45
0.021005237 6e-45 0.021174867 1.0808104e-09 0.038361534 0.036007907 6.612416e-05 0.0055603776
0.013812672 0.011946616 0.012904962 6e-45 0.07049397 0.09472368 6e-45 0.009226307
0.022791442 0.0089479545 0.033231463 6e-45 0.0113123 0.06835684 0.12323977 6e-45
0.041039065 0.004666473 0.27551654 0.00030666657 0.05747929 0.045836207 0.08088878 0.001929912
0.07575504 4.8065904e-19 0.0048181396 0.004077536 0.011513943 0.021128874 2.8420595e-09 0.009375804
0.010777358 0.28372377 0.020374922 0.0068196603 3.455979e-05 0.005635141 1.4194614e-05 0.15733896
0.013399592 0.002447179 0.018958945 0.0055460506 0.0089773275 0.04238187 0.02139748 0.05349653
0.04337273 6e-45 0.020064147 6e-45 0.015099978 0.05335129 0.025205538 0.019647045
0.022284167 0.04167694 0.04916421 0.12143993 0.043480568 0.0075524705 0.012261739 0.027872533
0.08647704 0.020596499 0.028483238 0.068395704 0.14958549 0.041422877 0.0048039723 0.006133333
0.026816107 0.038392056 0.0030377605 0.026644902 0.041163407 0.28252333 0.00022165873 0.00044423222
0.07716528 0.026669914 3.5456356e-05 0.032556877 0.0013140049 0.021952463 0.05238518 0.028458903
0.05357766 0.012668742 0.0049523823 0.054265432 0.068133 1.7318675e-05 3.785707e-15 0.00997759
0.21816698 0.2970446 0.029174527 0.06035579 0.0016172415 0.021561358 0.047209576 0.039439727
00000000: 899c 9f3c 0448 673c 6aa1 5c3d 6b00 d73b
00000010: a22e 873e 6a0d 963c 4d8a 932f 7f04 9a3d
00000020: cffd 123d 4f2b 0a3d 738b da3b a778 883c
00000030: ddfc 6a3e 0400 0000 8b37 cf39 cd21 163a
00000040: 6f52 e53c 6bf1 923d 0f9c a93d 1a2c 523c
00000050: 5362 8a3e 285e 7d32 103c 1635 a5ec b63c
00000060: f89e 703c ceed 143d d846 1c3d b003 303d
00000070: c410 a53d 578c 463d 2fe2 3c3c 931d a33b
00000080: c6f6 5b3d 0c18 923c b6f5 773d c6b7 f03d
00000090: b6fa f33b 2ce4 a73d c671 7a3b ab7a 9c3d
000000a0: 3565 993d 8d64 df3c c733 333c 72f2 023d
000000b0: 1e3c 033c 0d2d b43c cda1 803d 35d1 813d
000000c0: acc2 1e3c d840 963d 4608 fc3c 0a87 c93c
000000d0: 353c 0e3c 7368 833d 455f 863c f4b3 fc3b
000000e0: ed99 3f3c 5005 523d faf2 853e 14d9 0d3d
000000f0: 0400 0000 30da 903d c566 dc3b 8b54 aa3c
00000100: 684a 613d 37af 533c a249 a23c add6 3f3d
00000110: 6985 593b 39c6 613d 0413 8a3e 27ce a834
00000120: 8844 4d3c 45da 4a3d 7843 493d c263 903d
00000130: b075 203d 1511 463d 6a62 853d 06ec 973c
00000140: 5c65 0d37 0400 0000 aa03 c13c 74e6 291d
00000150: ccf9 9f3d 9b52 d93d 0a05 fb3c 19da bc3d
00000160: 2a0f 7c3d f129 af3d 996c 413d bb03 c53b
00000170: 3ed8 303d e571 2a3d d6cf c53c ebd8 473a
00000180: 1f70 293d ff3a 443b 5af5 ec3c 12e1 3138
00000190: 0b06 a13d 45fe c23d 3af2 983c 1393 7f3c
000001a0: bcd7 ed3c 87cb 5f3d b7d8 d51b 77de ce3b
000001b0: 6a9c 983c 7ece 283c 8517 9839 6c24 873b
000001c0: 98e4 f63b 3e2b c03c 61f4 863d 77c9 8b3c
000001d0: 6013 233e 9359 2b3d 4226 203d 37b3 003d
000001e0: 813a d83c 4e08 8f3c 02d8 103d a044 833c
000001f0: 2fdd 2a3c 4e68 6b3e 13d9 093c fe40 b03c
00000200: c003 0c3d 233c e53c 45c0 533d 71c1 441a
00000210: ac0d fc3d e97e a23d b758 2b3d fd5f e43c
00000220: 8001 663d f143 8a3d d1eb 143d a99a 793e
00000230: 0400 0000 0400 0000 0400 0000 0400 0000
00000240: 2d13 ac3c 0400 0000 ea76 ad3c a38b 9430
00000250: fc20 1d3d 077d 133d 23ac 8a38 d433 b63b
00000260: 8c4e 623c bdbb 433c 556f 533c 0400 0000
00000270: 245f 903d 7dfe c13d 0400 0000 f029 173c
00000280: 1eb5 ba3c 719a 123c b71d 083d 0400 0000
00000290: 3a57 393c acfe 8b3d 2265 fc3d 0400 0000
000002a0: 9418 283d 36e9 983b 8110 8d3e 17c8 a039
000002b0: 676f 6b3d bfbe 3b3d 04a9 a53d 1af5 fc3a
000002c0: 7525 9b3d 92dd 0d21 7ce1 9d3b da9c 853b
000002d0: faa4 3c3c 7616 ad3c 0a4e 4331 f99c 193c
000002e0: 8493 303c 3e44 913e 4fe9 a63c 7577 df3b
000002f0: 4bf4 1038 fda6 b83b 6725 6e37 771d 213e
00000300: f689 5b3c da60 203b ca4f 9b3c a5bb b53b
00000310: a415 133c 9d98 2d3d c549 af3c 2d1f 5b3d
00000320: 9ba7 313d 0400 0000 915d a43c 0400 0000
00000330: e665 773c e286 5a3d d87b ce3c d7f2 a03c
00000340: 498d b63c 70b5 2a3d 6960 493d 7fb5 f83d
00000350: ae18 323d b77a f73b 76e5 483c f054 e43c
00000360: e01a b13d fdb9 a83c ae55 e93c 0c13 8c3d
00000370: f02c 193e 09ab 293d a46a 9d3b 20fa c83b
00000380: 74ad db3c fd40 1d3d 2a15 473b 6946 da3c
00000390: f69a 283d e6a6 903e 106d 6839 d7e7 e839
000003a0: d508 9e3d dd7a da3c f9b6 1438 5c5a 053d
000003b0: b03a ac3a a7d5 b33c d891 563d a522 e93c
000003c0: 4074 5b3d 8e90 4f3c 9847 a23b 6e45 5e3d
000003d0: 5089 8b3d 9247 9137 fc64 8827 0c79 233c
000003e0: 2a67 5f3e 3b16 983e 6bff ee3c a237 773d
000003f0: 9ff9 d33a 72a1 b03c d45e 413d 8d8b 213d

model.2.running_var f4 [256]
0.0020176996 0.0013907753 0.029119534 0.00081687013 0.017825957 0.00347662 3.519369e-14 0.056160588
0.0034885274 0.00060867454 0.0031330723 0.001112993 0.0278406 6e-45 5.988545e-05 3.1791013e-05
0.0020170738 0.049729854 0.0041409913 0.00042050157 0.021641713 6.1786964e-12 1.1614733e-09 0.0006741658
0.001536132 0.0029557578 0.0129871275 0.0027184545 0.0087624565 0.0013077891 0.00061802624 8.6965105e-05
0.003634345 0.0007758949 0.003608721 0.006522323 0.00011565797 0.00578431 0.00018465135 0.060230628
0.053727917 0.005262071 0.0011059482 0.003058202 0.0006187052 0.00048425433 0.008779185 0.0067134695
0.00020973598 0.05696129 0.0038666509 0.0037442576 0.0003167856 0.038205206 0.00083729735 0.0004864387
0.0010874908 0.021369101 0.025570104 0.0026257352 6e-45 0.011783433 0.0018561974 0.0011824572
0.01043007 0.00041038066 0.0006857381 0.0036104298 0.00015063104 0.026890662 0.029332165 8.054822e-09
0.0008473239 0.010362296 0.002353271 0.011458449 0.0049760574 0.031582106 0.002618156 0.0010403285
1.4459457e-07 6e-45 0.0010857963 8.026463e-21 0.05655109 0.0073410114 0.0016035242 0.014485401
0.004852269 0.0037267052 0.004404453 0.001811005 0.015904272 0.00260335 0.0014030113 3.1224787e-05
0.022183055 0.00026790603 0.008306875 1.0807341e-06 0.063496366 0.004160204 0.003378408 0.0007742876
0.0021012572 0.0069117704 1.9868294e-22 0.00013485139 0.0011916055 0.0008434768 2.2239372e-05 0.0009158439
0.00052389817 0.00074111175 0.001122453 0.001058714 0.020215744 0.0024116347 0.0017154044 0.0018810674
0.0013428549 0.0020769516 0.0056273337 0.0007175206 0.00068187644 0.0147466725 0.0008936535 0.0014044096
0.0030970238 0.0007582961 0.001801154 1.5036024e-25 0.0046534208 0.0056337207 0.0006698297 0.0036684629
0.0055848206 0.0051025166 0.0019273217 0.018328395 6e-45 6e-45 6e-45 6e-45
0.0013900509 6e-45 0.0025379956 1.00132125e-11 0.004671951 0.0009890487 3.5297226e-06 0.00054143625
0.00096296804 0.0006017688 0.000922028 6e-45 0.052631494 0.0054641236 6e-45 0.0003720734
0.0010256381 0.00060234976 0.002427662 6e-45 0.0016514807 0.012311219 0.0018065573 6e-45
0.003509326 0.00015190434 0.019792417 2.6726895e-05 0.0040069716 0.007256937 0.06012072 0.000111921305
0.0078384755 8.767219e-21 0.00027996098 0.00057842524 0.0003717585 0.0010072492 1.5288026e-12 0.0004986677
0.0006420322 0.026113661 0.010448346 9.214414e-05 1.3473982e-06 0.000107969674 9.781522e-07 0.009483416
0.0008426557 7.539892e-05 0.0021515065 0.0002554074 0.000857666 0.00900626 0.0009641221 0.00074511144
0.0038096358 6e-45 0.0039832396 6e-45 0.000372995 0.0019554987 0.0014381832 0.0017390603
0.0007468855 0.003800714 0.002677449 0.0030143068 0.026495691 0.0011680956 0.00057166745 0.013522783
0.0055855075 0.0010644082 0.0008179935 0.016533786 0.012184286 0.0039476813 0.00029704222 0.00033460098
0.0013508421 0.002089919 7.745426e-05 0.0020775716 0.0012372434 0.021185884 1.5151798e-05 1.4729544e-05
0.0010082154 0.0019642494 5.8339344e-07 0.0023124195 0.00049839175 0.00083005585 0.006905625 0.0018979328
0.025846165 0.00053071714 0.00041324212 0.010854053 0.04769388 1.4842031e-07 2.4091422e-18 0.00074321515
0.013999406 0.024837075 0.0034277723 0.0028419343 0.00010121142 0.0026041016 0.00733295 0.004476529
00000000: 623b 043b ad4a b63a 178c ee3c 3a23 563a
00000010: be07 923c 01d8 633b 907f 1e29 a508 663d
00000020: c79f 643b 758f 1f3a 3b54 4d3b d9e1 913a
00000030: f811 e43c 0400 0000 832d 7b38 5757 0538
00000040: e230 043b 88b1 4b3d 27b1 873b c476 dc39
00000050: f649 b13c c064 d92c b5a1 9f30 80ba 303a
00000060: 0958 c93a 63b5 413b f6c7 543c 1928 323b
00000070: 6890 0f3c 1f6a ab3a 0a03 223a 0961 b638
00000080: 312e 6e3b 6d65 4b3a 4b80 6c3b 36b9 d53b
00000090: 668d f238 4f8a bd3b f89e 4139 64b4 763d
000000a0: ce11 5c3d 736d ac3b 77f5 903a 1e6c 483b
000000b0: 9a30 223a 84e3 fd39 92d6 0f3c aafc db3b
000000c0: 93ec 5b39 3e50 693d a367 7d3b 3862 753b
000000d0: 3e16 a639 107d 1c3d 137e 5b3a b208 ff39
000000e0: 238a 8e3a 410e af3c 6578 d13c 8714 2c3b
000000f0: 0400 0000 4d0f 413c a64b f33a aefc 9a3a
00000100: e2e2 2a3c 5c28 d739 1bc3 333a f69c 6c3b
00000110: b6f2 1d39 ce49 dc3c 024a f03c 7b61 0a32
00000120: f21e 5e3a 9fc6 293c 5639 1a3b 38bc 3b3c
00000130: 320e a33b 3d5c 013d 5e95 2b3b a25b 883a
00000140: da41 1b34 0400 0000 4751 8e3a 989d 171e
00000150: 1ea2 673d de8c f03b 582d d23a 2d54 6d3c
00000160: c8ff 9e3b bd3b 743b 3b53 903b 3e5f ed3a
00000170: ad49 823c f79c 2a3b 3fe5 b73a 5cf7 0238
00000180: 3db9 b53c bd75 8c39 8f19 083c be0d 9135
00000190: 620a 823d 5252 883b 4868 5d3b 90f9 4a3a
000001a0: 3fb5 093b 227c e23b 6431 701b e566 0d39
000001b0: a52f 9c3a c51c 5d3a b08e ba37 3e15 703a
000001c0: 3656 093a 2b47 423a 461f 933a 8cc4 8a3a
000001d0: 7d9b a53c 840c 1e3b 6cd7 e03a 268e f63a
000001e0: bc02 b03a 771d 083b 7f65 b83b fe17 3c3a
000001f0: f4bf 323a 079c 713c 1244 6a3a 2b14 b83a
00000200: 70f7 4a3b 64c8 463a b314 ec3a 1023 3a16
00000210: b97b 983b 139b b83b 8397 2f3a 986a 703b
00000220: df00 b73b 0333 a73b 2f9e fc3a 6e25 963c
00000230: 0400 0000 0400 0000 0400 0000 0400 0000
00000240: 5e32 b63a 0400 0000 8054 263b 8027 302d
00000250: 2a17 993b f8a2 813a 2ce0 6c36 2cef 0d3a
00000260: b16f 7c3a 05c0 1d3a 40b4 713a 0400 0000
00000270: 1f94 573d 640c b33b 0400 0000 d912 c339
00000280: b46e 863a 02e7 1d3a 6919 1f3b 0400 0000
00000290: 7f76 d83a ffb4 493c 01ca ec3a 0400 0000
000002a0: b8fc 653b 8348 1f39 b523 a23c 9233 e037
000002b0: ea4c 833b 9acb ed3b 2541 763d 4bb7 ea38
000002c0: f36c 003c ab9b 251e bac7 9239 76a1 173a
000002d0: 95e8 c239 ad05 843a eb28 d72b 06b9 023a
000002e0: 0d4e 283a 51ec d53c 8a2f 2b3c 823d c138
000002f0: 40d8 b435 c76d e238 0e49 8335 5460 1b3c
00000300: abe5 5c3a 7d1f 9e38 4a00 0d3b 33e8 8539
00000310: fed4 603a fe8e 133c 24bd 7c3a 9553 433a
00000320: 15ab 793b 0400 0000 d685 823b 0400 0000
00000330: 8b8e c339 d327 003b 6c81 bc3a 2ef1 e33a
00000340: a3ca 433a 6615 793b 2478 2f3b ad8b 453b
00000350: 7e0d d93c c91a 993a f4db 153a aa8e 5d3c
00000360: a206 b73b 9d83 8b3a 9d6e 563a dd71 873c
00000370: 99a0 473c 8d5b 813b 55bc 9b39 626d af39
00000380: bd0e b13a 06f7 083b f06e a238 de27 083b
00000390: 002b a23a 058e ad3c 7a34 7e37 e91e 7737
000003a0: 1826 843a a3ba 003b 7e9a 1c35 f68b 173b
000003b0: 81a6 023a 1b98 593a 9548 e23b 0fc4 f83a
000003c0: 56bb d33c d31f 0b3a 6ba8 d839 33d5 313c
000003d0: a85a 433d 775d 1f34 69c3 3122 53d4 423a
000003e0: c45d 653c 1f77 cb3c 7aa4 603b bf3f 3a3b
000003f0: 7841 d438 93a9 2a3b 3e49 f03b d9af 923b

model.4.weight f4 [128, 256]
-0.013586552 0.006660977 -0.062286932 -0.05962948 -0.02386326 -0.002152033 -0.010761964 -0.23789999
0.08660289 0.00047981206 0.017148074 -0.0010843808 -0.03698111 -0.0007623992 0.0036478098 0.011924329
-0.10099864 -0.23254907 -0.043358207 0.007310905 -0.0018306402 -0.0052427556 -0.021670477 0.020738913
0.028263489 -0.025652433 -0.12614171 0.030542154 -0.2321873 -0.0073945527 -0.026238784 -0.07651661
0.033246364 -0.0723013 -0.009271192 0.06621047 0.0070855226 0.06686545 -0.005044565 -0.30017456
-0.19972308 0.021499757 0.008010027 -0.057984997 0.005681447 0.008131168 -0.053377014 0.027634015
-0.009831887 -0.27681518 -0.06812657 -0.10656691 -0.0058184518 -0.16031481 -0.001747124 -0.0022692317
-0.007833444 -0.049476862 -0.09894982 -0.19625416 -0.05345019 -0.20676918 0.039010685 0.012082033
0.0290923 -0.00050063076 0.004940872 0.080001004 0.004297376 -0.07523091 -0.025897188 0.0031844445
-0.006273844 0.054098614 -0.067904234 0.008210634 -0.123964265 0.003197775 0.0030342583 0.001450504
0.009603621 -0.0045868116 0.0039000034 -0.029351814 -0.1395455 0.07568847 0.021266354 -0.013837543
0.009913837 -0.045319322 0.0031574422 0.009155241 -0.12647273 -0.048390444 0.0057532024 0.0109846825
-0.07028659 0.006551557 0.12408953 -0.011944273 -0.20902228 0.060226377 -0.0016569362 -0.0144397
-0.015520041 0.06362089 -0.03749647 -0.026270667 0.00431707 0.004112598 0.02141268 0.0049703172
-0.016915085 -0.019739777 -0.0842356 0.015017749 -0.018715518 -0.014865681 0.0075844945 -0.0045649516
-0.023944467 -0.023713466 -0.012278015 -0.011515788 -0.0055899094 0.014717201 -0.03208398 0.0012053854
0.08587059 0.00017288634 0.006281907 -0.011952763 0.024713896 0.04110216 0.0022691314 -0.12535103
-0.17185946 -0.0342158 0.02680801 -0.060652945 -0.001286948 0.004402182 -0.014172371 -0.00041009186
-0.04698 0.01319945 0.02133241 0.0035963429 -0.1269112 0.01105421 0.0014924146 0.028225131
-0.047716975 0.02911177 0.001580641 -0.019883402 -0.24188083 0.039667387 -0.006927975 0.011850018
-0.002629856 -0.006891126 0.014705711 0.029044593 0.02895324 0.002042237 -0.0389609 -0.0019829448
0.02352254 0.004436258 -0.038592145 -0.031868473 0.01286756 0.008138611 -0.20257501 -0.026394943
0.025039008 -0.007007451 -0.01826416 -0.03927386 0.009790611 -0.0112419 -0.02374973 0.0004949831
0.052309778 -0.060375247 0.0935832 0.00056857563 0.0029886242 0.0017767083 0.009116645 -0.005570839
-0.007391764 0.003327248 0.041364066 -0.03135613 -0.0066511575 0.033876613 -0.05365616 0.018285938
-0.017322794 -0.07373073 0.037907638 -0.0052991076 -0.0030774465 -0.037338708 0.015420665 0.027003631
-0.0070119184 0.0032621312 0.03639679 0.0058574257 -0.24923709 0.012085049 -0.018435964 0.058906335
-0.055898245 0.016386934 -0.026719028 0.09720338 -0.019532619 -0.04136267 -0.026024433 0.0076044244
0.00636364 -0.051138155 -0.007651452 0.061905507 0.025102839 0.008393894 -0.0045188204 -0.00077572255
0.02405498 0.006537115 0.00997021 -0.014321671 0.011282269 0.014462353 0.07409697 -0.037992556
-0.09467311 0.010559157 -0.048213664 0.014067631 -0.2054218 0.03653092 0.017752187 0.010509273
-0.0007575322 -0.027384011 -0.054017313 -0.00037298223 0.003875937 0.02219976 0.057218004 0.125381
00000000: 219a 5ebc 5344 da3b 9520 7fbd 0b3e 74bd
00000010: e27c c3bc 1f09 0dbb f352 30bc 0e9c 73be
00000020: db5c b13d 498f fb39 1e7a 8c3c c821 8eba
00000030: 8179 17bd bfdb 47ba 1810 6f3b 435e 433c
00000040: 60d8 cebd 5821 6ebe 6098 31bd 5190 ef3b
00000050: 18f2 efba 6ccb abbb 4986 b1bc a7e4 a93c
00000060: d588 e73c 0d25 d2bc 4b2b 01be 8a33 fa3c
00000070: 82c2 6dbe 014e f2bb b8f2 d6bc beb4 9cbd
00000080: 572d 083d b412 94bd 33e6 17bc 5b99 873d
00000090: ac2d e83b c1f0 883d e14c a5bb 7bb0 99be
000000a0: 3584 4cbe 4220 b03c 7d3c 033c ad81 6dbd
000000b0: 6f2b ba3b 9738 053c dba1 5abd bb60 e23c
000000c0: ec15 21bc b8ba 8dbe f185 8bbd c13f dabd
000000d0: b6a8 bebb 9129 24be c1ff e4ba 64b7 14bb
000000e0: d857 00bc 40a8 4abd 34a6 cabd daf6 48be
000000f0: 96ee 5abd 4dbb 53be abc9 1f3d b8f3 453c
00000100: fa52 ee3c c33c 03ba 0ae7 a13b 91d7 a33d
00000110: 01d1 8c3b aa12 9abd 5726 d4bc 1db2 503b
00000120: d194 cdbb 8296 5d3d 6011 8bbd e585 063c
00000130: fae0 fdbd c391 513b 68da 463b d61e be3a
00000140: 8258 1d3c f74c 96bb 3397 7f3b 3773 f0bc
00000150: 04e5 0ebe 8e02 9b3d c736 ae3c ddb6 62bc
00000160: a56d 223c c1a0 39bd 17ed 4e3b ddff 153c
00000170: 1182 01be 0f35 46bd 5c85 bc3b 19f9 333c
00000180: 6af2 8fbd 72ae d63b a722 fe3d e9b1 43bc
00000190: f009 56be efaf 763d 8e2d d9ba 7e94 6cbc
000001a0: c547 7ebc ab4b 823d e695 19bd 9535 d7bc
000001b0: 3576 8d3b f9c2 863b a569 af3c 0bde a23b
000001c0: 8191 8abc 50b5 a1bc b783 acbd 010d 763c
000001d0: 4951 99bc 2f8f 73bc 5a87 f83b 9795 95bb
000001e0: 3027 c4bc be42 c2bc ba29 49bc b7ac 3cbc
000001f0: 8f2b b7bb 6a20 713c 7e6a 03bd 06fe 9d3a
00000200: ebdc af3d d348 3539 75d8 cd3b 86d5 43bc
00000210: cc74 ca3c bd5a 283d b5b5 143b 055c 00be
00000220: edfb 2fbe de25 0cbd 799c db3c 396f 78bd
00000230: cfae a8ba 2e40 903b 3b33 68bc 9901 d7b9
00000240: 1a6e 40bd 8242 583c 4ec1 ae3c 9fb0 6b3b
00000250: 02f5 01be b81c 353c 209d c33a 6438 e73c
00000260: e072 43bd cf7b ee3c 832d cf3a 84e2 a2bc
00000270: 9caf 77be 457a 223d 1104 e3bb 9426 423c
00000280: aa59 2cbb f4ce e1bb 39f0 703c edee ed3c
00000290: 582f ed3c 0dd7 053b 7795 1fbd 4bf4 01bb
000002a0: 58b2 c03c 085e 913b cc12 1ebd 8488 02bd
000002b0: 75d2 523c cf57 053c d36f 4fbe 353a d8bc
000002c0: 9b1e cd3c c29e e5bb b89e 95bc a1dd 20bd
000002d0: cd68 203c f22f 38bc cb8e c2bc c1c1 013a
000002e0: c742 563d 094c 77bd 8ca8 bf3d 770c 153a
000002f0: cbdc 433b 70e0 e83a fb5d 153c 968b b6bb
00000300: 9c36 f2bb f50d 5a3b 5e6d 293d 496f 00bd
00000310: f4f1 d9bb 34c2 0a3d 90c6 5bbd 64cc 953c
00000320: 88e8 8dbc 2300 97bd 0a45 1b3d 23a4 adbb
00000330: fcae 49bb 79f0 18bd f5a6 7c3c b836 dd3c
00000340: 3cc4 e5bb 7bc9 553b cd14 153d a6ef bf3b
00000350: 0238 7fbe 5f00 463c 0507 97bc c547 713d
00000360: 8ff5 64bd e43d 863c dde1 dabc 9112 c73d
00000370: df02 a0bc e76b 29bd 3131 d5bc 892e f93b
00000380: 1586 d03b 3e76 51bd 08b9 fabb a190 7d3d
00000390: 78a4 cd3c 8b86 093c 9d12 94bb dc59 4bba
000003a0: f30e c53c 4c35 d63b 175a 233c 71a5 6abc
000003b0: 44d9 383c 81f3 6c3c 27c0 973d 159e 1bbd
000003c0: fae3 c1bd 5000 2d3c b17b 45bd ec7b 663c
000003d0: 185a 52be 72a1 153d 096d 913c 162f 2c3c
000003e0: 2095 46ba 6f54 e0bc 4241 5dbd d48c c3b9
000003f0: 6f03 7e3b 45dc b53c 6d5d 6a3d e063 003e

model.4.bias f4 [128]
0.14027908 -0.15386607 -0.07824142 -0.11203192 0.019884288 -0.022474993 -0.05600883 -0.031523336
-0.15985355 0.09256636 -0.17991893 -0.00093958847 0.009512642 -0.024726082 0.062158193 -0.06915538
0.00020551839 0.07410232 0.008145711 0.032050703 0.029176917 0.04155459 0.06386612 -0.004755217
-0.015678639 -0.009731216 0.016709078 0.010342919 -0.004861633 0.037365165 0.052341513 -0.040817462
-0.07301426 -0.049999412 -0.17279412 -0.067125306 0.11499643 0.06273075 -5.8974543e-05 0.011744425
-0.15377723 -0.18365057 0.09404607 -0.2598939 0.02171267 0.05499744 0.026786756 0.025942497
0.18524203 -0.049401417 0.012577188 -0.10419992 -0.02054995 -0.004751013 -0.06192322 0.0010710319
0.012454995 0.08190922 -0.060639832 -0.105759144 0.12060997 0.0069716717 -0.009158419 -0.020166997
-0.06146215 -0.16996524 -0.12081856 -0.0045401524 -0.0093897255 -0.014599463 0.10751458 -0.1780962
0.05288615 -0.015482631 0.21796107 -0.041727923 0.056275934 -0.028587403 0.012482427 0.03223694
0.096537516 -0.03233638 -0.018217819 -0.3554086 -0.09602616 -0.16288027 0.0084968535 -0.06389064
-0.01475853 0.009576237 0.05972237 -0.07481306 -0.068813495 -0.029659888 0.12236124 0.02398462
-0.07322685 -0.1814156 -0.03144785 0.05365877 -0.10076583 0.020128567 -0.11365129 0.049443446
0.13650028 0.15830258 -0.027770583 0.12869325 -0.07062465 -0.019276459 0.04929863 -0.08588583
-0.04536407 -0.29293606 -0.002712408 -0.027278226 0.057450082 0.11370076 0.0020929235 -0.2742062
-0.058679406 0.13034111 -0.11570784 0.022420468 0.03679953 -0.018909274 -0.042266313 -0.17893721
00000000: 52a5 0f3e 118f 1dbe 0a3d a0bd fe70 e5bd
00000010: 60e4 a23c 7a1d b8bc 8469 65bd 9d1e 01bd
00000020: a6b0 23be 6f93 bd3d ab3c 38be b74e 76ba
00000030: eada 1b3c 5a8e cabc 9799 7e3d 56a1 8dbd
00000040: 6c80 5739 f5c2 973d 9775 053c 9947 033d
00000050: 6e04 ef3c 2535 2a3d 3ecc 823d a7d1 9bbb
00000060: 7d70 80bc ae6f 1fbc 7ae1 883c 5975 293c
00000070: 554e 9fbb 370c 193d 0e64 563d 3630 27bd
00000080: 8088 95bd 2fcc 4cbd f1f0 30be fe78 89bd
00000090: 4083 eb3d fb78 803d 6f5b 77b8 b06b 403c
000000a0: c777 1dbe e50e 3cbe 3a9b c03d d010 85be
000000b0: c5de b13c ff44 613d e66f db3c 5c85 d43c
000000c0: 16b0 3d3e 2459 4abd 8d10 4e3c c566 d5bd
000000d0: 5e58 a8bc 63ae 9bbb 34a3 7dbd de61 8c3a
000000e0: 0910 4c3c 05c0 a73d 7961 78bd 4098 d8bd
000000f0: 5c02 f73d 9f72 e43b 320d 16bc 4235 a5bc
00000100: bcbf 7bbd 5e0b 2ebe b96f f7bd 8fc5 94bb
00000110: 5dd7 19bc 9632 6fbc 9b30 dc3d da5e 36be
00000120: 269f 583d dcaa 7dbc 3031 5f3e e6ea 2abd
00000130: 9881 663d 2130 eabc 1883 4c3c e20a 043d
00000140: 76b5 c53d 2773 04bd 893d 95bc 1ef8 b5be
00000150: 5da9 c4bd 16ca 26be 6336 0b3c 19d9 82bd
00000160: c3cd 71bc a6e5 1c3c 729f 743d 9737 99bd
00000170: 17ee 8cbd 4bf9 f2bc 8898 fa3d 657b c43c
00000180: f5f7 95bd 03c5 39be 76cf 00bd 4cc9 5b3d
00000190: 515e cebd aae4 a43c 02c2 e8bd 3685 4a3d
000001a0: bbc6 0b3e 121a 223e 227f e3bc 2ac8 033e
000001b0: a8a3 90bd aae9 9dbc 5ced 493d e9e4 afbd
000001c0: adcf 39bd b7fb 95be a8c2 31bb 9676 dfbc
000001d0: c750 6b3d f2db e83d 6e29 093b c164 8cbe
000001e0: d159 70bd 2478 053e 3bf8 ecbd 21ab b73c
000001f0: 1bbb 163d 9fe7 9abc 711f 2dbd 513b 37be
